app/src/main/ml/modelzeeshan.tflite (tflite, 673648 bytes, 8 tensors)

sequential/conv2d/BiasAdd/ReadVariableOp f4 [32]
000000 7b f3 a9 bc 56 f2 cb bb 42 bc 29 bd 8a 84 e0 bd
       -0.020745983 -0.006223957 -0.041439302 -0.1096278
000010 13 14 d9 bc c2 cf 91 3d 9c 1a 92 bd 90 a3 ab 3c
       -0.02649883 0.07119705 -0.071339816 0.020952016
000020 f1 a4 3d 3d 45 f7 a5 bc e9 84 11 3c 42 c7 d2 3d
       0.04629988 -0.020259509 0.008881786 0.10291912
000030 c2 8d 5c 3b ec 75 d2 bd 03 a4 97 3c a6 0d 8c 3d
       0.003365383 -0.10276398 0.018510824 0.06838541
000040 11 07 82 3b 53 fd 5b be 7b 47 1a bd 87 25 0c 3c
       0.0039681275 -0.21483354 -0.037665825 0.008553869
000050 49 02 38 bd 98 9a 0e bd 36 dc 19 3d dc 10 8a 3c
       -0.044924054 -0.0348154 0.037563525 0.016853742
000060 80 24 a5 3d aa 04 61 bd 62 87 f4 3c 30 e5 c1 be
       0.080636024 -0.05493609 0.029849712 -0.3787017
000070 17 d2 10 3d 0f 3e 10 be fa 07 91 3d 2d 69 69 bd
       0.035356607 -0.14086173 0.070815995 -0.05698507

sequential/conv2d_1/BiasAdd/ReadVariableOp f4 [64]
000000 e9 1c 63 3d 10 82 20 3e 13 ad 80 bd 15 db 34 bd
       0.055447493 0.15674615 -0.06283011 -0.044154245
000010 7d c8 1c bd fe 74 a7 3c f5 47 b8 3d f7 49 03 3d
       -0.038277138 0.020441528 0.089981 0.03205296
000020 45 ea 80 3d 44 c9 e2 3d b4 b4 80 3b 4c 64 20 bd
       0.06294683 0.110735446 0.0039277915 -0.03915815
000030 e7 91 fe 3d 7b 0b 2d bc 62 21 28 bd 59 b1 22 3e
       0.124301724 -0.010561819 -0.04104746 0.15887965
000040 1c 6a 2d bd c7 17 de 3e 71 66 a8 3d 91 e3 9f bd
       -0.042337522 0.43377516 0.08222664 -0.07807077
000050 2b b1 7a bd 1c b6 9c bd f6 13 1b 3e 51 af 09 3e
       -0.061204117 -0.07651922 0.15144333 0.13445784
000060 83 4c 6b 3d 4d 5b 68 3d e5 f5 10 3e 32 06 b2 bd
       0.057446014 0.056727696 0.14156301 -0.08692588
000070 03 2b 29 3c 76 cd b2 3d 26 a8 ec bc 11 ff 41 3d
       0.010325196 0.08730595 -0.028888773 0.04736239
000080 51 c6 8d bd 7c 24 85 bd 0d ee fa bc 42 70 cb bc
       -0.069225915 -0.065010995 -0.03063109 -0.024833802
000090 67 da 2d be f1 99 ba 3c 6b e7 8c 3d 2b 78 4d bc
       -0.16977845 0.022778483 0.06880077 -0.012540857
0000a0 7e 15 45 bd 81 50 80 bc 5f 76 3d be 55 54 4e be
       -0.0481162 -0.015663387 -0.18502186 -0.20149358
0000b0 bb d8 31 bd 79 ff d8 bc c8 07 1d be e0 4f ec bb
       -0.04341958 -0.026489006 -0.15335 -0.0072116703
0000c0 a0 4d 09 bd 17 e4 90 3d 1a 64 f2 3d 04 08 b0 bd
       -0.033521295 0.07074755 0.11835499 -0.08595279
0000d0 cd 72 ce 3e 04 cb c6 bc ea 45 2f 3d 5c 1b 45 3e
       0.4032196 -0.024266727 0.042791285 0.19248718
0000e0 2e ae 05 3d 03 72 80 bd e1 f9 b9 3d 33 5e e2 3a
       0.032636814 -0.06271746 0.09080864 0.0017270505
0000f0 50 64 8b 3e 34 52 fa 3d cb 8f a6 ba b4 f3 ce bd
       0.2722497 0.1222271 -0.0012707649 -0.101050764

sequential/conv2d/Conv2D f4 [32, 3, 3, 3]
000000 6c e2 05 be 09 45 14 3e f9 86 7f 3d 99 80 8a be
       -0.13074654 0.1447946 0.06238458 -0.27051237
000010 82 88 89 3d fb d1 06 be 4e a7 aa bd 35 01 86 3e
       0.0671549 -0.13166039 -0.08332692 0.26172796
000020 ba ab b1 3d 19 02 8f bc 92 24 95 3d 7e 15 02 3e
       0.08675332 -0.017457055 0.07282366 0.12703511
000030 ef c6 32 be 6d 1a 1e bd 1a 05 86 be 9c 2c 08 3d
       -0.174587 -0.03859942 -0.26175767 0.033245668
000040 33 15 1e 3c 9d ef 0e 3e c2 a3 96 3d b8 fb 81 3e
       0.009648609 0.13958593 0.07355453 0.2538736
000050 aa 2d 84 3c 45 5c 22 be 3f 88 d8 3d 60 d1 10 be
       0.016135056 -0.1585551 0.10572862 -0.1414237
000060 a5 6d 96 bd 71 68 51 3e 02 26 8d bd 67 de 02 bd
       -0.07345132 0.20449997 -0.06892015 -0.03195038
000070 17 30 4f 3d 31 ca f8 3d 47 72 81 3d ca 1a 47 3e
       0.05058297 0.1214794 0.06320625 0.19443813
000080 1e a0 00 3e f7 e4 9b 3d f9 83 a0 bd eb 3b 8d bd
       0.1256108 0.07612031 -0.07837672 -0.06896194
000090 c7 31 f2 3d 83 80 8a bd e4 8b 42 bd e6 6f e4 3d
       0.118259005 -0.06762793 -0.04749669 0.111541554
0000a0 e7 1a 55 3e 9c 47 06 3e d1 34 f9 3d d9 77 2d 3e
       0.20811044 0.13113254 0.12168277 0.1694025
0000b0 5e 07 c4 3d 7b 8e 94 be 52 94 21 be 07 1a 7a be
       0.09571718 -0.29014954 -0.15779236 -0.24423991
0000c0 da d5 88 be 3c 1d d7 bd 31 7f 7c be 8a 84 41 be
       -0.26725656 -0.10503623 -0.24657895 -0.18898216
0000d0 ec 1f 6f bd 90 69 32 3d d4 ec 90 bc db 31 9f bc
       -0.058380052 0.043557703 -0.017691053 -0.019432953
0000e0 f6 ce fe bd 27 ee ff bd e9 4b 8e bd e7 03 2d be
       -0.124418184 -0.12496596 -0.069480725 -0.1689602
0000f0 1d 66 11 be 58 7f 73 3d 23 b8 31 be 95 e2 de 3c
       -0.1419911 0.059447616 -0.17355399 0.027207652
000100 cc 2d c3 bc 06 d0 02 be 07 99 c2 bd 39 27 bf bc
       -0.023825549 -0.12774667 -0.09501844 -0.023334133
000110 ef 56 13 be 2f 44 a2 3d eb 1c 91 3d 3e df 80 bd
       -0.14388631 0.07923161 0.07085594 -0.0629258
000120 26 50 87 3b e9 48 f9 3d 76 ca 88 bd f0 f7 b8 bd
       0.0041294275 0.1217211 -0.06679241 -0.09031665
000130 ba 67 64 bd ab a5 ae bd 0b af 62 bd 19 4a 04 be
       -0.055762984 -0.085276924 -0.055342715 -0.12918891
000140 a0 27 2e bd ca a8 dc 3d dc 70 89 3d a7 ae d7 3d
       -0.042518258 0.107743815 0.06710979 0.10531359
000150 c2 4c 1c be 93 3f e6 3d 4d eb e3 3c 4b 8b ba 3c
       -0.15263656 0.112425946 0.027822161 0.022771498
000160 8e 97 34 be 58 1d ba bd ce a5 39 3d 45 cd 4d 3d
       -0.17635939 -0.09087628 0.04532414 0.05024459
000170 9b 42 4d 3d 84 f7 48 3b 6f b7 4d 3d 4c ce 0a be
       0.050112348 0.003066511 0.050223764 -0.13555259
000180 b9 0a 22 bd 69 a1 26 3d f8 92 01 be 94 f8 e6 3d
       -0.039561007 0.040681276 -0.1265372 0.11277881
000190 91 b4 c6 3d 19 03 cb bd e8 61 0e bd b9 ba a0 bd
       0.09702409 -0.099127 -0.03476134 -0.078481145
0001a0 8f 38 6b bd d2 84 05 bc bc 8e 12 bd fb 24 35 bc
       -0.057426985 -0.008149343 -0.035780653 -0.01105618
0001b0 1b 8e 2f 3d 91 e1 44 be 85 1b 5d 3d e9 3c 38 bd
       0.04286013 -0.19226672 0.053981323 -0.044979963
0001c0 bc 3c 44 3e f9 e5 2d 3e 2a 46 31 3e bf b5 68 3e
       0.19163793 0.16982259 0.17311922 0.2272558
0001d0 c7 2e 7f 3b ce fe f4 bd 2d 26 1e be 0c b7 a8 be
       0.0038937794 -0.11962663 -0.1544425 -0.32952154
0001e0 35 54 83 bd 89 86 b4 bd d8 1d b1 3d 69 69 68 3e
       -0.064125456 -0.08814723 0.0864827 0.22696461
0001f0 b3 fb 83 3e ff e7 8d 3e d3 67 9c bd f8 3e 25 be
       0.2577797 0.2771606 -0.076369904 -0.16137302
000200 35 2e 36 be 61 f3 00 be 80 2c 77 bd 0f 69 43 be
       -0.17791064 -0.12592842 -0.060345173 -0.19083045
000210 4b 1f b4 bb 3f 1a 46 3d 97 bb ff 3c 2f 4a 17 be
       -0.0054968945 0.048364874 0.03121738 -0.14774393
000220 c2 62 4a be fe 14 ea bd 1b fd 60 3e 36 6e 8d 3e
       -0.19764236 -0.11429785 0.21971552 0.27623147
000230 58 1f 4f 3e 84 54 5a 3b 65 e3 82 3e 50 fe 4a 3e
       0.202268 0.0033314535 0.25564113 0.19823575
000240 4b 7b 97 be e1 c9 e2 be 29 d6 79 be a9 8a 0f 3d
       -0.29586253 -0.44294646 -0.24398102 0.035044346
000250 e3 b6 bf bc 1e 50 c0 3c 35 65 da 3d b5 2f 12 3e
       -0.023402637 0.023475703 0.10663835 0.14276011
000260 2b 62 a4 3e 9f a0 fc bd fa 67 10 be 08 c1 23 be
       0.32106146 -0.123353235 -0.14102164 -0.15991604
000270 8a b5 04 be 77 a0 7d be ef 3b 5b be fb 7f 25 3c
       -0.12959877 -0.24768244 -0.21409582 0.010101314
000280 b3 cc 28 3e 6c dd da 3c 6a 48 85 bd e2 3f f9 3c
       0.16484337 0.02671691 -0.065079525 0.03042597
000290 2e 50 9e be 7e f0 8c 3c 72 f7 f6 3d 75 06 30 be
       -0.30920547 0.01720452 0.12058915 -0.17189963
0002a0 cc a4 9e bd b3 2f 0a 3e 1d 0d 0b be ce e9 c3 bd
       -0.07746276 0.13494758 -0.13579221 -0.09566079
0002b0 4e 31 d0 3d 1a 12 11 be fd 62 0d bd ce 67 23 3e
       0.10165654 -0.14167061 -0.03451823 0.15957567
0002c0 18 0a ae bd 01 49 70 3d 5d ee 48 3e 49 78 c5 be
       -0.08498019 0.058663372 0.19622178 -0.38568333
0002d0 56 bd 19 be be a9 59 3e 39 2e 97 3c 2a b2 8e 3d
       -0.15013632 0.21256158 0.018454658 0.06967576
0002e0 39 01 4d 3e 04 dd 57 be da 4b 95 bd 20 31 8f 3e
       0.20019998 -0.21080405 -0.07289858 0.27967167
0002f0 e5 c6 89 be de 55 50 be 7b 8a 2c 3e c9 66 4c be
       -0.26909557 -0.20345256 0.16849701 -0.19961084
000300 0f 41 6f bd c4 0c 72 3e 78 2a 52 be c5 e8 ba 3d
       -0.058411654 0.23637682 -0.20524013 0.091264285
000310 fd 9b 7d 3e 72 70 02 be ad 42 fd bd a5 ac 23 3e
       0.24766536 -0.12738207 -0.12366233 0.15983827
000320 0f 9c f7 3d 50 72 28 be c9 e3 3f 3e 9e 60 23 be
       0.12090313 -0.16449857 0.18739237 -0.15954825
000330 5b ba f3 bd 07 6d 1c 3e 3c f6 97 bd 96 02 07 be
       -0.11900779 0.15275966 -0.07420012 -0.1318458
000340 f9 51 2d 3e 35 bb 1c be 1e 58 b3 bc c9 88 17 3e
       0.16925801 -0.15305789 -0.021892603 0.14798273
000350 38 78 12 be 45 48 18 bc 7f a9 89 bc bf 6c a8 3d
       -0.14303672 -0.009294574 -0.016804455 0.08223867
000360 5b 49 59 3d a9 6f b7 3d bb ae 3c 3c b2 e5 fd bd
       0.053048473 0.08956844 0.011516268 -0.123973265
000370 5e ae 52 bd 87 26 36 be c5 f2 49 be 6f 83 82 be
       -0.05143582 -0.17788135 -0.19721515 -0.254909
000380 76 ba 9f bd b2 d2 18 3e b8 e0 7a 3d c4 2b 5d 3e
       -0.077992365 0.14924124 0.061249465 0.21598727
000390 66 fe a1 3d 2e 02 c9 bd 87 a1 ec 3d fb a6 81 be
       0.07909851 -0.09814869 0.115542464 -0.25322708
0003a0 0b 37 66 be 4d a0 4a be 6d 79 6b 3e 4f fa 3f 3e
       -0.22481935 -0.19787712 0.22995539 0.18747829
0003b0 23 bc a4 3d 25 52 2b 3e 1f c9 db 3d 3a 31 03 3e
       0.08043697 0.16730554 0.1073172 0.12811747
0003c0 bd 9e bc bd a7 11 32 be cc fb bd bc 35 d0 01 3e
       -0.092099644 -0.17389546 -0.023191355 0.12677081
0003d0 86 c3 95 3d 09 df a9 bd a3 03 2a 3e fa 73 b2 3d
       0.07312684 -0.08294494 0.1660295 0.08713527
0003e0 72 36 83 3d 98 46 07 3e 76 6e 28 3e 56 89 1b bd
       0.06406869 0.13210523 0.16448388 -0.03797277
0003f0 e9 50 15 bd 88 f8 79 be 9e aa 04 3d 55 5c 16 3e
       -0.036454115 -0.24411213 0.032389276 0.1468366

sequential/conv2d_1/Conv2D f4 [64, 3, 3, 32]
000000 e8 20 6c be 9f 30 62 be 86 f6 08 bd e0 6f f7 bd
       -0.23059428 -0.2208886 -0.033438228 -0.12081885
000010 61 60 f2 3c 4e a3 33 3e ff cb d3 bc 5f b4 94 be
       0.029586973 0.17542765 -0.025854109 -0.29043862
000020 dd 06 8a bd ce 0f 1f be 03 b0 44 be 44 35 60 3d
       -0.0673959 -0.15533373 -0.19207768 0.054738298
000030 da f3 38 bd 88 cb 06 bc 19 91 0a bf 66 5b 09 be
       -0.04515443 -0.008227237 -0.5412765 -0.13413772
000040 30 7e aa bc 3d fc d4 bd 8d 7c e4 3b 2c 31 1b be
       -0.020812124 -0.10399673 0.0069728554 -0.15155476
000050 f2 4d 35 be 3b d7 93 be fa 4b db 3d 4b 64 bf bd
       -0.17705515 -0.28875145 0.10707851 -0.09345301
000060 e8 dd 83 be 8f c5 0b 3e 8e 08 bd bd 14 aa f4 3d
       -0.2575524 0.13649581 -0.09230147 0.11946502
000070 8e 56 2f be 90 06 e4 3d 26 0d 10 3c ae c3 15 bd
       -0.17122862 0.11134064 0.008792197 -0.036563568
000080 52 34 63 be 51 3b a4 bb d9 e7 2e bd 63 98 9c bc
       -0.22187927 -0.005011954 -0.042701576 -0.019115632
000090 58 62 22 3c e0 91 da bd 19 c5 8a 3d 45 51 94 be
       0.009911142 -0.10672355 0.06775875 -0.28968254
0000a0 d9 4b 04 be 25 2a ec bd db 3b 7d bd 5a c6 41 3e
       -0.12919559 -0.11531476 -0.06182466 0.18923321
0000b0 1c af 22 be 24 55 25 3e f9 78 0a be f4 de 65 be
       -0.15887111 0.1614576 -0.1352271 -0.22448331
0000c0 43 70 01 3e 74 90 b1 bd 09 6f a3 3d 35 55 01 be
       0.1264048 -0.0867013 0.07980163 -0.1263016
0000d0 81 67 3e 3d b8 36 a9 3e 7d b0 90 3b 0e 9a 3d be
       0.046485428 0.3304956 0.0044155703 -0.18515798
0000e0 35 d2 98 3d 57 99 97 3c 8a b9 83 be 8e 1d ce 3d
       0.07461969 0.018505735 -0.25727493 0.10064231
0000f0 06 05 01 be f3 d1 4c 3c 5b ae 65 3c 14 f2 83 bd
       -0.12599573 0.012501228 0.01401862 -0.06442657
000100 1a 46 22 be c5 84 ea bd 28 79 0c 3d 39 c6 db 3d
       -0.15847054 -0.11451105 0.03429523 0.10731167
000110 16 52 be bd c7 e8 a1 bd 4c 81 2c be 86 65 a7 be
       -0.092930004 -0.07905727 -0.16846198 -0.32694644
000120 21 a8 dc 3c 91 b2 b4 bc 3d c5 e1 3d bb 16 2e 3a
       0.026935639 -0.022057803 0.11023948 0.00066409603
000130 07 fa c4 bd d5 ad e4 bd 8c d5 a7 3d 67 fc 10 bd
       -0.096180014 -0.11165968 0.08195028 -0.03539696
000140 47 53 da 3d 83 e5 c0 bd e3 e3 02 bd a8 84 4e be
       0.10660415 -0.09418776 -0.03195561 -0.20167792
000150 e3 0e e0 3c 8f 42 ad 3d 1b 67 8c be b4 10 07 be
       0.027350849 0.08459961 -0.27422413 -0.13189965
000160 98 8f 1c bc 74 c2 5f 3a cc 57 96 be bf 99 0b 3e
       -0.00955572 0.00085357507 -0.2936386 0.13632868
000170 bd ed b1 be 93 64 09 3e e4 2d 9c bd 5c d0 79 bd
       -0.34751692 0.13417272 -0.076259404 -0.060989723
000180 57 e0 89 bd 81 a5 88 be 8f 21 b0 bd 1d eb a9 3d
       -0.067322426 -0.2668877 -0.08600151 0.082967974
000190 6d 8e 0d bd a0 45 11 be 0c 11 06 be ed b0 73 be
       -0.034559656 -0.14186716 -0.1309244 -0.2379796
0001a0 1e 46 5a 3d c2 1d c5 bd 4e f1 46 bd 5c d7 80 bd
       0.053289525 -0.096248165 -0.04856997 -0.062910765
0001b0 ed c2 6d bd 8e c9 24 bd 43 c2 d0 be 64 f2 db bd
       -0.058047224 -0.04023128 -0.4077321 -0.10739592
0001c0 0c 4f 31 3d e6 d5 c3 3c d6 3f 48 3d 25 97 8a bd
       0.043288276 0.023905706 0.048889004 -0.0676711
0001d0 09 d2 9e bc 8e e7 84 be f0 b6 88 bd b1 a1 12 be
       -0.019387262 -0.25957912 -0.066755176 -0.14319493
0001e0 9b b1 f2 be c1 39 07 bd 25 34 4c be 4c d3 29 3d
       -0.47401127 -0.033014063 -0.19941767 0.041461274
0001f0 92 e2 97 3c dd fb aa 3d a4 07 81 bd 20 49 99 bc
       0.018540654 0.0834882 -0.063002855 -0.018711627
000200 c4 09 68 bb 48 7a f1 bd 52 b6 27 bd 38 e4 a5 3d
       -0.0035406211 -0.117909014 -0.04094536 0.0810017
000210 09 2a 10 be 43 d0 eb be fd f1 d1 bc 6f 8d ec be
       -0.14078535 -0.4605733 -0.025628084 -0.46201655
000220 0a e0 00 3e a7 33 6f be d8 d2 8c 3c df c0 ea 3d
       0.12585464 -0.23359548 0.017190382 0.114625685
000230 79 96 83 be 97 74 fe bc f2 6d e5 bd a1 ee c1 bc
       -0.2570074 -0.031061454 -0.11202611 -0.023673357
000240 8d ef e3 3d a5 c0 5f 3e ea 87 9c 3d 78 de 21 3d
       0.11129675 0.21850832 0.07643111 0.039518803
000250 b1 cd 22 3e f7 a8 a5 3d 3c e9 5d be b1 f0 b7 be
       0.15898778 0.08088868 -0.21671003 -0.3592582
000260 93 10 28 3e cc 58 36 bc a8 3f 82 3e 10 13 89 3a
       0.16412573 -0.011129569 0.2543919 0.0010457952
000270 72 23 e3 bb c7 90 b0 3c fa f3 6c 3c 1b 7b 80 bd
       -0.0069317156 0.02155341 0.014462465 -0.062734805
000280 9a 31 8c bc ab d2 38 3e d4 89 37 bd ee e4 7e 3c
       -0.017113496 0.18049113 -0.044809178 0.015557511
000290 a7 48 24 3e bf 70 83 3e f8 0d 5a 3e 6b 78 94 3d
       0.1604334 0.25671956 0.21294391 0.072495304
0002a0 45 dd 32 be 98 c3 81 3e 13 ce 52 be 11 aa da bd
       -0.1746722 0.2534454 -0.20586424 -0.10676969
0002b0 e7 37 c7 bd a6 37 1d be 80 ab ed 3d 8f dd 7e 3d
       -0.097274594 -0.1535326 0.11604977 0.062223013
0002c0 04 8c a6 3d eb 68 d6 bc 17 b1 0d bb 66 35 36 3d
       0.081321746 -0.026173076 -0.0021620446 0.04448452
0002d0 f6 6a 86 3c 22 8a 63 3e de 67 15 bc d9 ff 0b 3d
       0.016408425 0.22220662 -0.009119002 0.034179542
0002e0 37 c7 4f 3e 65 3a e5 3d 44 e9 6d bd e2 66 ae 3d
       0.20290838 0.111927785 -0.058083788 0.08515717
0002f0 87 28 47 3c 79 44 78 bd 54 74 da bd 3d 81 5d 3e
       0.012155659 -0.060612176 -0.10666719 0.21631332
000300 b4 32 c6 bd 6c 5c d3 3d 13 dc c8 bc 23 63 b4 bd
       -0.096776396 0.103203624 -0.024519002 -0.08807971
000310 c3 2f 03 3e f7 5f b1 bd 26 12 b3 bd 14 b3 b7 be
       0.12811188 -0.08660882 -0.08743696 -0.35878813
000320 90 24 07 be ad b1 10 3e 42 a2 de bd f2 31 48 3a
       -0.13197541 0.14130278 -0.10870792 0.0007636837
000330 26 cb e7 bd a7 28 8f bc 4f 8c 27 be 1f e2 88 be
       -0.11318044 -0.01747544 -0.16362117 -0.26735017
000340 41 50 ff 3c 52 77 56 be 5f cd 89 bd b5 5e 41 bd
       0.031166198 -0.20943955 -0.067286246 -0.04720946
000350 38 c1 f0 bd 52 c7 09 bc 66 42 b1 bd 38 e5 28 bd
       -0.117556036 -0.008409338 -0.086552426 -0.041234225
000360 c5 4d d7 3d c6 58 27 3d e2 d4 1d be af 72 6f 3e
       0.1051288 0.040856145 -0.1541324 0.23383592
000370 aa 45 bf bd 37 53 56 bc 56 61 b1 3d bf 5a 16 bd
       -0.09339459 -0.013081363 0.086611435 -0.036707636
000380 c5 8a 40 bc 6b 9a 2d 3c 08 f6 a9 bc c3 16 8d 3d
       -0.011751835 0.010595898 -0.0207472 0.06889107
000390 9e f3 c0 3b 04 3e 5d be e9 f9 98 3b 36 54 44 be
       0.0058884164 -0.21605688 0.0046684635 -0.19172749
0003a0 65 a5 81 3e c4 25 08 3e 39 e4 12 3e 60 2e f4 bd
       0.253215 0.13295656 0.14344873 -0.11922908
0003b0 f2 c6 cd be a0 34 6f be 75 e2 1c be 0c 8b bb be
       -0.40190846 -0.23359919 -0.15320762 -0.36629522
0003c0 69 b7 f0 3c bc fe 1b 3e 05 9d 35 3c 9e a2 4b 39
       0.029384332 0.15233892 0.0110848 0.00019420168
0003d0 51 53 5f 3d 62 f3 08 be 51 fc b9 be 33 bd f3 be
       0.054522816 -0.13374093 -0.36325315 -0.47605285
0003e0 b8 0f 61 3b 43 a0 e5 3c ad 94 ac be ae 22 d3 3d
       0.0034341644 0.02803052 -0.3370718 0.10309349
0003f0 47 9b d0 3d de 13 9e 3d 2a 51 87 3c 49 6d 6b 3c
       0.10185867 0.07718633 0.016518194 0.014369317

sequential/dense/BiasAdd/ReadVariableOp f4 [64]
000000 97 01 4c bd c2 1f 0e 3e 23 79 da 3d 40 3c de 3c
       -0.049806204 0.13879302 0.10667636 0.027128339
000010 f8 d7 f8 bd 8d 9b 85 3e e3 e9 d8 bb 7d a1 15 3e
       -0.12150568 0.26095238 -0.0066196783 0.14612384
000020 4e c0 dd 3d b2 98 c6 bc 9d 17 12 bc 1a 7b f5 bb
       0.10827695 -0.024242733 -0.008916763 -0.0074914815
000030 42 29 88 3d de 5a e2 3e be 14 88 3c 3f 36 f3 bb
       0.06648494 0.4420995 0.016611453 -0.007422238
000040 32 c0 6e bd 63 11 cb 3d f7 09 86 3e c9 84 19 bc
       -0.05828876 0.09915426 0.26179478 -0.009370037
000050 67 12 06 bd 8b 58 08 be 59 20 68 bd ca a8 31 bc
       -0.032732394 -0.13315026 -0.056671474 -0.010843465
000060 51 26 25 be ee 08 25 bc 9d d0 1e bc 86 c0 76 3d
       -0.16127898 -0.01007293 -0.009693292 0.0602422
000070 8a 45 46 3e ca 70 8e bc 5e 70 1e bc 33 42 7c be
       0.19362465 -0.017387766 -0.009670345 -0.24634628
000080 89 e5 46 bd 54 22 08 bd b5 5f a6 3d 5f 33 58 3d
       -0.048558746 -0.033235863 0.081237234 0.052783366
000090 a8 c7 d8 bc fd e7 0f bd 3e c7 aa bd 31 47 19 3e
       -0.026462391 -0.03513335 -0.08338784 0.14968564
0000a0 4d f2 16 bd d7 bd 3f 3e 86 4e 85 3c 81 37 d5 bb
       -0.03685217 0.18724762 0.016272794 -0.0065068607
0000b0 99 56 82 3e ea bc 14 bd 0a f2 fb bc 9e 6c d5 3c
       0.25456694 -0.036312975 -0.030755062 0.02605277
0000c0 bc ab 8d bc c8 31 30 bc 56 1b 8b bc 99 9d 39 bc
       -0.017293803 -0.010754056 -0.016980808 -0.011329078
0000d0 4e de 37 bc eb 66 85 bd 98 d5 72 bd 29 7d de bb
       -0.011222435 -0.06513771 -0.05928573 -0.0067898226
0000e0 b3 30 bf bc fe 71 8b 3d 1a 50 6d 3d 49 0e a6 bc
       -0.023338651 0.06808852 0.05793772 -0.020270484
0000f0 54 4f f8 bc 17 06 c4 bb a0 b5 7c be c0 98 cc bc
       -0.030311264 -0.0059821713 -0.2467866 -0.02497518

sequential/dense_1/BiasAdd/ReadVariableOp f4 [10]
000000 ea 96 4e be c6 cb 31 be a0 e6 b7 3c 9a ad b9 3d
       -0.20174757 -0.1736289 0.022448838 0.09066315
000010 c1 62 9c 3e c2 7d 69 be 2f d5 00 3e 0b 24 b0 bd
       0.30544093 -0.22801879 0.12581323 -0.08600625
000020 69 e6 51 3e 4b 73 b3 bd
       0.20498051 -0.08762225

sequential/dense/MatMul f4 [64, 2304]
000000 64 e7 6c bc 42 76 a3 bd 45 b3 2d bd 80 c8 d0 b9
       -0.014459465 -0.0798154 -0.042407293 -0.00039822236
000010 e9 e0 32 bd 1b 85 27 3b eb 30 5a bd 4d 5f 14 3c
       -0.043671522 0.0025561515 -0.053269308 0.009055925
000020 30 56 66 bd 59 c5 69 3d a1 12 58 bd 88 40 80 3c
       -0.05623454 0.05707297 -0.05275214 0.01565577
000030 2a 6c 64 bd 4a d9 a8 bd 29 35 6b bd 31 c6 db bc
       -0.055767216 -0.082445696 -0.057423744 -0.026827903
000040 e4 22 42 bd 1e ff 42 3c fa 02 33 bd 14 4f cc 3c
       -0.047396556 0.011901645 -0.04370401 0.024940051
000050 16 ea 33 3d 00 f4 41 3d be d9 40 bd 1c f5 73 bd
       0.043924414 0.047351837 -0.047082655 -0.059559926
000060 92 9e 81 bd b1 f2 68 bd 97 ab 97 bd 8b 31 5a 3c
       -0.06329073 -0.056872074 -0.07405775 0.013317476
000070 ee 69 70 bc b7 55 9d bd e0 74 49 bc 89 08 ea bc
       -0.014673693 -0.076823644 -0.012295932 -0.028568523
000080 32 88 30 bc 73 ab bd 3d 46 98 be bc 35 3c 0f bd
       -0.010774659 0.09261217 -0.023265969 -0.034969527
000090 05 6c bd bd cd 20 97 3c 80 93 d3 bc 6c 7d b5 bc
       -0.09249119 0.018448258 -0.02582717 -0.022154532
0000a0 8d 22 24 3b 88 5c 8b bb c3 5c e5 bc cb f2 92 bc
       0.0025045008 -0.004252974 -0.027998334 -0.017938038
0000b0 f0 d6 5c bb ae 01 0d bd 4d d1 8d bc 8d 8d aa bd
       -0.0033697449 -0.03442543 -0.017311716 -0.0832778
0000c0 61 3b 1d bc e4 d4 74 bd b4 c1 7f 3b 9c ac 0f bd
       -0.009596677 -0.05977334 0.0039025368 -0.035076723
0000d0 f4 e9 a2 bd c3 36 12 bd b3 ac 94 bc ee c1 1c 3c
       -0.07954779 -0.035696756 -0.018148756 0.009567721
0000e0 d9 e2 ac bd b3 c0 d3 bd 62 89 b8 3c 18 22 a8 3d
       -0.08441705 -0.10339489 0.022526447 0.08209628
0000f0 77 08 35 bc 4f 13 34 bb fe 92 88 bd 50 a1 c7 bd
       -0.011049381 -0.002747733 -0.066686615 -0.09747565
000100 2f ec 29 bd a2 2b 7f bd 47 15 d8 3a 48 4e 32 3d
       -0.041485008 -0.06229747 0.0016485833 0.043531686
000110 f9 57 ba bc be fb 09 bd ce 6c 39 bd a2 04 af bd
       -0.022747027 -0.033687346 -0.04526978 -0.085458055
000120 99 fc c3 3a dd 3c 82 3b 18 6b 99 3c 76 b5 5f bd
       0.0014952599 0.0039745406 0.018727824 -0.054616414
000130 ca d7 48 bd 6c f7 75 bd ef 95 4a 3d fa 95 3e bd
       -0.049033917 -0.060050413 0.049459394 -0.046529748
000140 78 4c 03 3d a8 79 d1 bc ee a9 10 bd 3c 9b 81 bc
       0.03205535 -0.025570706 -0.035318308 -0.015821092
000150 fc 4a 23 3d 80 ec 64 bc 1f bd 9d bd ad 6a 7c bc
       0.039866433 -0.013972402 -0.077020876 -0.015406293
000160 8a 03 4f bd a3 c0 79 bd 4d bb 7e bd 22 e0 00 bd
       -0.050540484 -0.06097473 -0.062190343 -0.03146375
000170 22 4e bb bc b5 c7 c9 bd 9c 42 cb bc ee d2 56 bd
       -0.022864405 -0.09852544 -0.024812035 -0.052447252
000180 4e f8 de bc cf 1c be ba 98 c9 d6 bb 34 8c 4b bd
       -0.02721801 -0.0014504435 -0.0065547936 -0.049694255
000190 45 a9 8e bd 57 d1 a1 3d 08 86 c8 bc 01 41 9a ba
       -0.06965879 0.079012565 -0.024477974 -0.001176864
0001a0 f8 b8 3d 3d 14 1e 23 bc 3c 50 b2 bd 5e c7 07 bd
       0.046318978 -0.009955902 -0.0870671 -0.033149116
0001b0 ec a2 34 3d 74 dd cc bb 9d e0 1c bd 42 4a ac bc
       0.044100687 -0.006251985 -0.038300145 -0.021031503
0001c0 f7 1c a9 ba f8 64 3a 3c bc ee ed bc d4 06 0e bd
       -0.0012902309 0.011376612 -0.029044501 -0.03467448
0001d0 d8 41 a9 bc 2e c4 1b bd b4 a5 1c bd 31 f6 85 3d
       -0.02066128 -0.03802889 -0.038243964 0.06541098
0001e0 c1 20 cc bd c8 a5 c2 bd 69 99 fd bc 1b 55 92 bd
       -0.09967185 -0.095042765 -0.03095694 -0.07145139
0001f0 00 4c 97 bc 2a db 89 3c f6 e5 02 bd da 8b 6e bd
       -0.018468857 0.016828138 -0.03195759 -0.05823884
000200 bb 84 5d bd e4 1d 47 bd 63 42 2f bd f8 27 ad 3c
       -0.05408166 -0.04861249 -0.04278792 0.021137223
000210 a0 a0 6d bd 72 79 ba 3c 94 1d 73 3c 20 c3 27 3b
       -0.058014512 0.022762988 0.014838595 0.0025598481
000220 05 33 76 bd ed b8 e5 3c ee 0c a3 3c 10 97 10 3d
       -0.06010725 0.028042281 0.019903626 0.035300314
000230 7e 2d a6 bd 8e 56 a3 bb 81 65 cf bc e6 89 b0 bc
       -0.08114146 -0.0049846834 -0.025316956 -0.02155013
000240 a8 c8 8c 3c eb 80 a3 bd 42 1f fb bc 50 27 c6 3b
       0.017185524 -0.079835735 -0.030654553 0.006047167
000250 2e 30 97 3c de 78 1f bd d9 db ca bb 8c 93 92 3b
       0.018455591 -0.038933627 -0.0061907587 0.0044731554
000260 1e 78 e9 3c e3 96 7e bd 6b 60 85 bd 10 c4 90 bc
       0.02849966 -0.062155616 -0.06512531 -0.017671615
000270 2f 87 6a bd ca 78 56 3d 79 47 33 bd 46 1d b6 bc
       -0.057257827 0.052361287 -0.043769334 -0.022230756
000280 2a ed c4 3b 19 1a 46 3c a0 67 11 bd 45 8c 27 3d
       0.0060097175 0.012091183 -0.035499215 0.040905256
000290 63 4e 05 bd 95 5c 17 3b e9 4f a0 3c 53 c3 85 3b
       -0.03254546 0.0023095955 0.019569354 0.0040821224
0002a0 74 32 45 bd 10 62 b4 bc 74 7c dc 3c f3 70 74 3c
       -0.04814382 -0.022019416 0.026914813 0.014919507
0002b0 09 dd 25 bd 18 6a c1 3c 46 7a ce bb fe bf 03 3d
       -0.040494 0.02361016 -0.006301197 0.03216552
0002c0 80 16 72 ba 4d 5f 9e bd 7e 3e 18 bc 1e 93 73 3c
       -0.000923492 -0.07733021 -0.009292243 0.014866618
0002d0 68 59 d0 bd c7 d1 10 bd 23 77 09 3c a5 ef 38 bc
       -0.10173303 -0.03535631 0.008390221 -0.011287604
0002e0 ab 9c 96 bd 55 36 07 bd a1 cd 66 bc 3d 04 5e bb
       -0.07354101 -0.0330108 -0.014087112 -0.0033877038
0002f0 33 9c 54 bc ea ae 08 bd 38 56 61 bd 2b 1e bc bd
       -0.012976694 -0.033369936 -0.055013865 -0.091854416
000300 77 10 83 bd 42 98 ed bb c1 89 80 3d 40 9b 96 bc
       -0.06399625 -0.0072508166 0.062762745 -0.018384576
000310 e7 91 6d bd 60 92 2b 3b 5d 84 4d bd 02 b1 57 bc
       -0.05800047 0.0026179776 -0.05017506 -0.013164761
000320 5d 95 0c bd 91 a6 c7 3c 83 82 90 bc 58 de 7e bc
       -0.03432213 0.024371417 -0.017640358 -0.015555941
000330 b6 11 e3 bc bd d5 4d 3d a7 d1 ef bc b1 6a ab bd
       -0.027718406 0.050252665 -0.029274775 -0.08369959
000340 f4 79 c4 3c 04 d1 83 bd b1 1c 5c 3c e6 47 3b bd
       0.023983933 -0.06436351 0.013434575 -0.045722865
000350 50 39 91 3c f8 08 0e 3c a7 2d be bd 3e 34 19 3d
       0.017727524 0.0086691305 -0.09286051 0.037403338
000360 84 e2 66 bd 94 4e ce bc 70 61 cf bd b1 d3 3f 3d
       -0.056368366 -0.025183953 -0.101260066 0.046832744
000370 ed ee 5a bd a3 d6 9d bb a8 1b 4c 3c 1c ce c3 bc
       -0.053450514 -0.0048168465 0.012457766 -0.023901992
000380 c1 32 f2 3c 0c 8a 58 3c a0 1d 40 bc 38 26 ec 3c
       0.029565217 0.013216507 -0.011725813 0.028826818
000390 b0 0d 53 3b fc f6 7d bc f9 df 22 3d 14 78 b0 bc
       0.0032204203 -0.01550078 0.03976438 -0.021541633
0003a0 90 9f 59 bd a7 33 25 bd 11 25 3a 3c a5 e8 96 3c
       -0.053130686 -0.040332463 0.011361376 0.01842148
0003b0 c9 f7 43 bd 27 87 8c bd c0 05 ba 3a 87 41 d8 bc
       -0.04784373 -0.06861716 0.0014192387 -0.026398433
0003c0 00 4b 1a 39 71 d5 d9 3c e0 b3 e3 3c 2e 41 a3 3c
       0.00014714524 0.026591035 0.027795732 0.019928541
0003d0 64 eb b3 bd cc ed dd bc 2f 41 9f 3c d2 ea 02 3c
       -0.087851316 -0.02709093 0.019440262 0.007990556
0003e0 3d 8c 25 bd 91 05 7c bd d4 f4 1b bd 27 47 37 3d
       -0.040416945 -0.061528746 -0.038075283 0.04474559
0003f0 83 95 11 3d c7 eb 58 3d 69 5d 0b bd cd d0 1d 3d
       0.035542976 0.05295923 -0.03402463 0.038529206

sequential/dense_1/MatMul f4 [10, 64]
000000 c3 0a 47 3e fd 75 87 3e 92 a8 14 bf 20 7b 3a 3e
       0.19437699 0.26457205 -0.5806972 0.18211031
000010 6b c4 90 be d3 f7 9d be bd 61 82 3e 61 2d b4 bd
       -0.28274855 -0.30853137 0.25465193 -0.08797718
000020 2f e9 b4 be 65 dc 3c 3e df 8b 84 3e 69 f9 db bd
       -0.35334155 0.18443449 0.25887963 -0.107409306
000030 33 ca 97 be 10 16 5e be f6 d5 a8 3e 75 e3 20 be
       -0.29646453 -0.21688104 0.3297574 -0.15711768
000040 38 6a 96 bd 2a 3c 97 3d 63 33 cf bd 5c 20 35 bd
       -0.07344478 0.07384522 -0.10117223 -0.044220313
000050 61 2f 8f be 3e 1c aa 3e 16 b5 83 bc a2 2b 59 3d
       -0.27965835 0.33224672 -0.01607756 0.053020127
000060 6c 80 55 3e 00 41 8a be 58 1e 29 3e 06 f2 4e bd
       0.2084977 -0.27002716 0.16515481 -0.05052378
000070 95 29 53 be 10 6f a2 3d 93 ae e9 3c 40 40 6f 3e
       -0.20621331 0.0793134 0.028525626 0.23364353
000080 06 c1 76 3e b3 c4 9d bb c7 fb 97 3e 23 8d 88 3e
       0.2409707 -0.004814708 0.29684278 0.2667018
000090 6f 66 40 3d 0b 2e 1d 3e 17 a2 0d 3f c9 24 be be
       0.04697269 0.15349595 0.55325454 -0.3713744
0000a0 7e fd 32 bd 70 55 89 be 62 a4 cf 3e ed f6 d4 3d
       -0.04369878 -0.26822996 0.40555102 0.1039866
0000b0 79 20 14 3e 02 41 f3 bc 00 0b 7f be de 7d 55 3e
       0.14465512 -0.029694084 -0.2490654 0.20848796
0000c0 bb e1 19 3d c5 3e e2 bd 09 de 92 be 44 24 4a 3e
       0.03756879 -0.110471286 -0.28685024 0.19740397
0000d0 2a 17 11 be 32 ea 02 3e de 99 9b 3d 3e d8 9b 3c
       -0.14168993 0.12784651 0.07597707 0.01902401
0000e0 4a 48 73 be ee ac 0a be d1 22 34 be d0 cc 63 3d
       -0.23758045 -0.1354253 -0.17591406 0.055615246
0000f0 6e 82 a6 3d 01 9d 20 3e ef 30 29 be 64 4e 3d bd
       0.08130346 0.15684892 -0.16522573 -0.046217337
000100 ee dd 07 bc 00 48 fe 3d c4 9a b4 3e 5e ac f1 3d
       -0.008292658 0.12416077 0.35274327 0.118004546
000110 eb 3a 3c 3e fb ee f7 be ab ba 43 be 09 7a fb 3d
       0.1838185 -0.48424515 -0.19114177 0.12279136
000120 53 1e d8 3e e5 fa 6b be 20 57 63 3e b1 6f 76 be
       0.42210636 -0.23044927 0.22201204 -0.24066044
000130 71 78 c8 3e 3f 33 fb bd 8e a8 01 be a0 30 37 3e
       0.3915439 -0.12265634 -0.12661955 0.17889643
000140 5f bc 04 be 0f cf f8 be 1b a9 02 bf 95 e2 2b 3e
       -0.12962483 -0.48595473 -0.51039284 0.16785653
000150 9d 15 24 3e 4f ba c6 3e 10 e0 59 3e ce a2 2c 3e
       0.1602387 0.38814017 0.2127688 0.1685898
000160 5f c3 2c be 0e ef 0c be 3c ea 37 be bc 64 90 bd
       -0.16871403 -0.13763067 -0.17960447 -0.070504636
000170 44 59 b6 be eb 00 94 bd d1 30 47 3e 98 b3 83 3e
       -0.3561498 -0.072267376 0.19452216 0.25722957
000180 b6 96 0d 3e e4 b6 7e 3d e4 f1 de 3d 31 80 05 3e
       0.13827023 0.062186137 0.10885981 0.13037182
000190 87 dd 1b be 93 c1 5d be 42 0b 32 3d 1c f8 1b 3f
       -0.15221225 -0.21655874 0.043467768 0.6092546
0001a0 aa be 54 3e 99 d6 d5 be 4c 38 a4 bc bd 6b 40 be
       0.20775858 -0.41765288 -0.020046376 -0.18791099
0001b0 f4 44 1f be 0a 1a b8 be 26 3b 55 3d db 1a 46 be
       -0.15553647 -0.35957366 0.05205836 -0.19346182
0001c0 8d 6c 55 3d 51 17 30 3e 45 a4 41 be 0a 28 3c be
       0.052105475 0.17196395 -0.1891032 -0.18374649
0001d0 5d 8f 28 be 90 a5 f3 be a3 aa de bd f9 6b 25 3e
       -0.16460939 -0.47587252 -0.1087239 0.1615447
0001e0 a8 ae a8 bd 78 c9 61 be 54 e3 04 bf a2 29 ec bd
       -0.08236438 -0.2204951 -0.51909375 -0.11531378
0001f0 9c 06 fa 3d 9d fc 87 3e 8a 7a 2f be d5 57 2f be
       0.12208292 0.26559916 -0.17136589 -0.17123349
000200 44 f3 80 bd ed 00 4f 3e 39 da 5d 3d bd f7 9c be
       -0.06296399 0.20215197 0.05416319 -0.3065776
000210 40 1f 65 3e 72 82 73 bc e0 9d 01 3d f1 b3 1c be
       0.22375202 -0.014862644 0.031644702 -0.15303017
000220 1a 7b 5e bd 43 79 7d bd 3a ee 14 be a5 ae 1b bd
       -0.054316618 -0.061883222 -0.14544001 -0.03800835
000230 22 db 64 bd ed 19 87 3e 8c f9 01 3f 0b d7 2f 3c
       -0.055873044 0.26386967 0.50771403 0.010732423
000240 bf ce 57 3e fe 3a 73 3e 0e d6 b1 3d 68 71 01 be
       0.21074961 0.23752972 0.08683406 -0.12640917
000250 ef 28 b1 bd 02 12 30 be c1 e9 9f 3c 8c 7c 8f bd
       -0.086503856 -0.1719437 0.019520642 -0.07006177
000260 6f 02 40 3d 76 1c fd bd a8 73 74 be 05 49 24 3e
       0.04687732 -0.12358944 -0.23872244 0.1604348
000270 35 bc b8 be 61 e4 30 be 3b 8e 92 3d cf 1b 97 bd
       -0.3608109 -0.1727462 0.071560346 -0.07378351
000280 f4 3b 35 be 64 37 8f bd 09 25 90 be 63 21 1f 3e
       -0.17698652 -0.06992987 -0.28153256 0.1554008
000290 27 7e 08 3e 9c b1 80 be 76 b7 ad be 29 78 c0 be
       0.13329373 -0.25135505 -0.33929032 -0.37591675
0002a0 74 6a 32 bd fd a8 a7 3e cc e4 1c bd 42 f2 67 3e
       -0.043558553 0.32746115 -0.038304135 0.22651008
0002b0 03 6b af 3e f8 82 ef bd a2 af 76 be 0d fc 9d 3e
       0.3426133 -0.11694902 -0.24090436 0.30856362
0002c0 32 d8 0f be e0 33 de bd 95 e2 4e 3d 4b 41 17 be
       -0.14047316 -0.10849738 0.050509054 -0.14771001
0002d0 1c ab 70 3e 3a 7e 86 bd cf c4 1e be 64 a3 19 be
       0.23502773 -0.065670446 -0.15504764 -0.15003735
0002e0 65 61 26 3c b3 c6 c0 be 0c 6b d5 be 94 72 77 3e
       0.010155057 -0.37651595 -0.41683233 0.24164802
0002f0 8d 35 8c 3d 28 3c 58 be da 43 f2 3d 95 48 14 be
       0.068461515 -0.21116698 0.11829348 -0.14480813
000300 3e 05 26 bd 74 2d a6 be a2 8d 07 3e e4 75 09 be
       -0.040532343 -0.32456553 0.13237622 -0.13423878
000310 d4 18 31 3e e9 fd 0e 3e f0 b6 af 3c 07 3a 69 be
       0.17294627 0.13964047 0.021449536 -0.22776042
000320 f2 97 8d be 4a 37 89 3d 38 dd 4e 3e f3 67 22 be
       -0.27654988 0.06699999 0.20201576 -0.15859966
000330 5c 78 34 3e 4b 37 82 3e 5b 57 14 be 48 ea 82 bd
       0.17624038 0.2543281 -0.14486448 -0.06392342
000340 78 1c 34 bd 07 5f 93 3e 4c 04 11 3e 96 d4 76 3e
       -0.043972462 0.28783438 0.14161795 0.24104533
000350 a2 78 ad be 03 a3 cc 3d dc 8d 53 be e2 1f 78 be
       -0.33881098 0.099920295 -0.20659584 -0.24230912
000360 25 4b 7a bc ce 5a dd bd 12 7f e1 bb 87 ef 31 3e
       -0.015276705 -0.10808335 -0.006881603 0.17376529
000370 22 0d 07 3e 7a 2f 04 ba 38 9c 92 be 4b 57 e2 3d
       0.13188604 -0.0005042475 -0.2863481 0.11051806
000380 40 78 1e be 9e e9 c2 be 8c 60 ec 3d a6 60 36 3e
       -0.15475559 -0.3806886 0.11541852 0.17810306
000390 4f 59 f4 bd 52 62 fb bd e3 8b e7 bd b8 31 6f be
       -0.11931097 -0.122746125 -0.11305978 -0.2335881
0003a0 78 52 72 3e 14 10 35 3e 40 82 c3 3e 1b d5 03 3e
       0.23664272 0.17681915 0.3818531 0.12874262
0003b0 c5 19 9e be 59 82 02 3e 11 1d 8d be 63 d6 84 be
       -0.30879036 0.12745036 -0.27561238 -0.25944814
0003c0 f9 ee 1e be a9 8c 2d bc 4b 32 89 be 91 43 7e be
       -0.15520848 -0.010592618 -0.26796183 -0.24830462
0003d0 e1 c2 73 3d e9 9f e9 3d 17 e7 75 be ec ab 3c 3d
       0.059512023 0.114074536 -0.24013935 0.046062395
0003e0 29 3f 11 be 0c 84 6e 3e a0 e5 26 3e 45 3f e8 bd
       -0.1418425 0.2329256 0.16298532 -0.11340193
0003f0 37 28 8f 3a c3 11 8d 3e 58 3e b5 bd b3 e6 4d be
       0.0010922019 0.27552614 -0.08849782 -0.20107536
